…
<span class="n">train_datagen</span><span class="o">.</span><span class="n">fit</span><span class="p">(</span><span class="n">X_train</span><span class="p">)</span>
</pre></div>

     </div>
</div>
</div>
</div>

<div class="jp-Cell-outputWrapper">


<div class="jp-OutputArea jp-Cell-outputArea">

<div class="jp-OutputArea-child">

    
    <div class="jp-OutputPrompt jp-OutputArea-prompt"></div>


<div class="jp-RenderedText jp-OutputArea-output" data-mime-type="text/plain">
<pre>Model: &#34;sequential&#34;
_________________________________________________________________
Layer (type)                 Output Shape              Param #   
=================================================================
conv2d (Conv2D)              (None, 48, 48, 32)        320       
_________________________________________________________________
conv2d_1 (Conv2D)            (None, 48, 48, 32)        9248      
_________________________________________________________________
conv2d_2 (Conv2D)            (None, 48, 48, 32)        9248      
_________________________________________________________________
max_pooling2d (MaxPooling2D) (None, 24, 24, 32)        0         
_________________________________________________________________
conv2d_3 (Conv2D)            (None, 24, 24, 64)        18496     
_________________________________________________________________
conv2d_4 (Conv2D)            (None, 24, 24, 64)        36928     
_________________________________________________________________
conv2d_5 (Conv2D)            (None, 24, 24, 64)        36928     
_________________________________________________________________
max_pooling2d_1 (MaxPooling2 (None, 12, 12, 64)        0         
_________________________________________________________________
conv2d_6 (Conv2D)            (None, 12, 12, 128)       73856     
_________________________________________________________________
conv2d_7 (Conv2D)            (None, 12, 12, 128)       147584    
_________________________________________________________________
conv2d_8 (Conv2D)            (None, 12, 12, 128)       147584    
_________________________________________________________________
max_pooling2d_2 (MaxPooling2 (None, 6, 6, 128)         0         
_________________________________________________________________
flatten (Flatten)            (None, 4608)              0         
_________________________________________________________________
dense (Dense)                (None, 64)                294976    
_________________________________________________________________
dense_1 (Dense)              (None, 64)                4160      
_________________________________________________________________
dense_2 (Dense)              (None, 5)                 325       
=================================================================
Total params: 779,653
Trainable params: 779,653
Non-trainable params: 0
_________________________________________________________________
</pre>
</div>
</div>

</div>

</div>

</div><div class="jp-Cell jp-CodeCell jp-Notebook-cell jp-mod-noOutputs  ">
<div class="jp-Cell-inputWrapper">
<div class="jp-InputArea jp-Cell-inputArea">
…
