…
<span class="n">train_datagen</span><span class="o">.</span><span class="n">fit</span><span class="p">(</span><span class="n">X_train</span><span class="p">)</span>
</pre></div>

     </div>
</div>
</div>
</div>

<div class="jp-Cell-outputWrapper">


<div class="jp-OutputArea jp-Cell-outputArea">

<div class="jp-OutputArea-child">

    
    <div class="jp-OutputPrompt jp-OutputArea-prompt"></div>


<div class="jp-RenderedText jp-OutputArea-output" data-mime-type="text/plain">
<pre>Model: &#34;sequential&#34;
_________________________________________________________________
Layer (type)                 Output Shape              Param #   
=================================================================
conv2d (Conv2D)              (None, 46, 46, 64)        640       
_________________________________________________________________
conv2d_1 (Conv2D)            (None, 46, 46, 64)        36928     
_________________________________________________________________
batch_normalization (BatchNo (None, 46, 46, 64)        256       
_________________________________________________________________
max_pooling2d (MaxPooling2D) (None, 23, 23, 64)        0         
_________________________________________________________________
dropout (Dropout)            (None, 23, 23, 64)        0         
_________________________________________________________________
conv2d_2 (Conv2D)            (None, 23, 23, 128)       73856     
_________________________________________________________________
batch_normalization_1 (Batch (None, 23, 23, 128)       512       
_________________________________________________________________
conv2d_3 (Conv2D)            (None, 23, 23, 128)       147584    
_________________________________________________________________
batch_normalization_2 (Batch (None, 23, 23, 128)       512       
_________________________________________________________________
max_pooling2d_1 (MaxPooling2 (None, 11, 11, 128)       0         
_________________________________________________________________
dropout_1 (Dropout)          (None, 11, 11, 128)       0         
_________________________________________________________________
conv2d_4 (Conv2D)            (None, 11, 11, 256)       295168    
_________________________________________________________________
batch_normalization_3 (Batch (None, 11, 11, 256)       1024      
_________________________________________________________________
conv2d_5 (Conv2D)            (None, 11, 11, 256)       590080    
_________________________________________________________________
batch_normalization_4 (Batch (None, 11, 11, 256)       1024      
_________________________________________________________________
max_pooling2d_2 (MaxPooling2 (None, 5, 5, 256)         0         
_________________________________________________________________
dropout_2 (Dropout)          (None, 5, 5, 256)         0         
_________________________________________________________________
conv2d_6 (Conv2D)            (None, 5, 5, 512)         1180160   
_________________________________________________________________
batch_normalization_5 (Batch (None, 5, 5, 512)         2048      
_________________________________________________________________
conv2d_7 (Conv2D)            (None, 5, 5, 512)         2359808   
_________________________________________________________________
batch_normalization_6 (Batch (None, 5, 5, 512)         2048      
_________________________________________________________________
max_pooling2d_3 (MaxPooling2 (None, 2, 2, 512)         0         
_________________________________________________________________
dropout_3 (Dropout)          (None, 2, 2, 512)         0         
_________________________________________________________________
flatten (Flatten)            (None, 2048)              0         
_________________________________________________________________
dense (Dense)                (None, 512)               1049088   
_________________________________________________________________
dropout_4 (Dropout)          (None, 512)               0         
_________________________________________________________________
dense_1 (Dense)              (None, 256)               131328    
_________________________________________________________________
dropout_5 (Dropout)          (None, 256)               0         
_________________________________________________________________
dense_2 (Dense)              (None, 128)               32896     
_________________________________________________________________
dropout_6 (Dropout)          (None, 128)               0         
_________________________________________________________________
dense_3 (Dense)              (None, 5)                 645       
=================================================================
Total params: 5,905,605
Trainable params: 5,901,893
Non-trainable params: 3,712
_________________________________________________________________
</pre>
</div>
</div>

</div>

</div>

</div><div class="jp-Cell jp-CodeCell jp-Notebook-cell jp-mod-noOutputs  ">
<div class="jp-Cell-inputWrapper">
<div class="jp-InputArea jp-Cell-inputArea">
…
