…
<span class="n">train_datagen</span><span class="o">.</span><span class="n">fit</span><span class="p">(</span><span class="n">X_train</span><span class="p">)</span>
</pre></div>

     </div>
</div>
</div>
</div>

<div class="jp-Cell-outputWrapper">


<div class="jp-OutputArea jp-Cell-outputArea">

<div class="jp-OutputArea-child">

    
    <div class="jp-OutputPrompt jp-OutputArea-prompt"></div>


<div class="jp-RenderedText jp-OutputArea-output" data-mime-type="text/plain">
<pre>Model: &#34;sequential&#34;
_________________________________________________________________
Layer (type)                 Output Shape              Param #   
=================================================================
conv2d (Conv2D)              (None, 46, 46, 64)        640       
_________________________________________________________________
max_pooling2d (MaxPooling2D) (None, 23, 23, 64)        0         
_________________________________________________________________
batch_normalization (BatchNo (None, 23, 23, 64)        256       
_________________________________________________________________
conv2d_1 (Conv2D)            (None, 21, 21, 128)       73856     
_________________________________________________________________
max_pooling2d_1 (MaxPooling2 (None, 10, 10, 128)       0         
_________________________________________________________________
batch_normalization_1 (Batch (None, 10, 10, 128)       512       
_________________________________________________________________
conv2d_2 (Conv2D)            (None, 8, 8, 256)         295168    
_________________________________________________________________
max_pooling2d_2 (MaxPooling2 (None, 4, 4, 256)         0         
_________________________________________________________________
batch_normalization_2 (Batch (None, 4, 4, 256)         1024      
_________________________________________________________________
conv2d_3 (Conv2D)            (None, 2, 2, 512)         1180160   
_________________________________________________________________
max_pooling2d_3 (MaxPooling2 (None, 1, 1, 512)         0         
_________________________________________________________________
batch_normalization_3 (Batch (None, 1, 1, 512)         2048      
_________________________________________________________________
dropout (Dropout)            (None, 1, 1, 512)         0         
_________________________________________________________________
flatten (Flatten)            (None, 512)               0         
_________________________________________________________________
dense (Dense)                (None, 256)               131328    
_________________________________________________________________
activation (Activation)      (None, 256)               0         
_________________________________________________________________
dropout_1 (Dropout)          (None, 256)               0         
_________________________________________________________________
dense_1 (Dense)              (None, 5)                 1285      
_________________________________________________________________
activation_1 (Activation)    (None, 5)                 0         
=================================================================
Total params: 1,686,277
Trainable params: 1,684,357
Non-trainable params: 1,920
_________________________________________________________________
</pre>
</div>
</div>

</div>

</div>

</div><div class="jp-Cell jp-CodeCell jp-Notebook-cell jp-mod-noOutputs  ">
<div class="jp-Cell-inputWrapper">
<div class="jp-InputArea jp-Cell-inputArea">
…
